chkpt/fnn_douban_classifier_500_0.0002_other_pred_v_0_v2_2.pt (torch, 29311 bytes, 5 tensors)

weight f4 [64, 32]
0	0xbdad35e2	-0.08457543
1	0x3dd338d2	0.10313572
2	0x3d564869	0.05231515
3	0x3d59aad7	0.05314144
4	0xbd1c7003	-0.03819276
5	0x3e12c528	0.14333022
6	0xbd1088b2	-0.035286613
7	0x3c5e65b6	0.013574054
8	0x3c72911d	0.0148051055
9	0xbe124a9f	-0.14286278
10	0xbdc42b95	-0.09578625
11	0x3e01f3de	0.12690684
12	0xbd348206	-0.044069313
13	0x3da46377	0.08026784
14	0x3ce59b37	0.028028114
15	0x3cdf83aa	0.027284462
16	0xbef338ee	-0.4750437
17	0xbe2ce26a	-0.16883245
18	0xbe73cb8c	-0.23808116
19	0xbde4d075	-0.111725725
20	0xbecbc5eb	-0.39799437
21	0x3d0694a3	0.032856595
22	0xbe3fb426	-0.18721065
23	0x3e78ba4b	0.24289815
24	0x3ee3d931	0.4450164
25	0x3ec4bd83	0.38425836
26	0xbecdcdcb	-0.4019607
27	0xbf1b523c	-0.60672355
28	0x3f1d2409	0.6138311
29	0xbed31bfb	-0.41232285
30	0x3e753768	0.23946917
31	0x3ec55aee	0.38545936
32	0x3cd9d894	0.02659253
33	0xbdc6ff02	-0.09716608
34	0xbd60edf5	-0.054914434
35	0x3bd46c71	0.006482654
36	0x3cc9d302	0.02463675
37	0xbcebf848	-0.028804913
38	0x3d8367ea	0.064163044
39	0xbb24efb3	-0.0025167286
40	0x3d6cf7e4	0.057853594
41	0x3c9ace8e	0.018897321
42	0xbd011dca	-0.03152255
43	0xbd4ff72b	-0.050772827
44	0xbd5048b0	-0.05085057
45	0x3be7969c	0.0070675146
46	0x3bc119c6	0.005892965
47	0xbda1f9a7	-0.079089455
48	0xbec57768	-0.38567662
49	0xbf0373a6	-0.5134834
50	0x3f26a2a5	0.65091926
51	0xbe5998f5	-0.21249755
52	0xbf219ba9	-0.63128144
53	0xbdf13344	-0.11777356
54	0x3e1ceb64	0.1532417
55	0x3e94890c	0.29010808
56	0xbdb35732	-0.087568656
57	0xbf1e8015	-0.6191419
58	0xbe3b88b1	-0.18313862
59	0xbf2245c0	-0.6338768
60	0xbd028f9a	-0.03187523
61	0xbe647126	-0.22308788
62	0x3e9ddb9d	0.30831614
63	0x3d5ec599	0.054387663
64	0xbdeee823	-0.1166537
65	0x3da577b3	0.080794714
66	0x3c0a2f9b	0.008434202
67	0x3d54dde4	0.051969424
68	0xbd68e1d7	-0.056856003
69	0xbdddddf8	-0.10833353
70	0xbddb4ac7	-0.10707622
71	0x3d751d37	0.059842315
72	0x3e26c3c1	0.16285612
73	0xbe03e2ff	-0.12879561
74	0x3de6ea43	0.112751506
75	0x3e097250	0.13422513
76	0xbdb1584f	-0.08659422
77	0xbdc404f8	-0.0957126
78	0xbd612298	-0.05496463
79	0x3e246cde	0.16057155
80	0xbdf22b7f	-0.118247025
81	0x3f5dab99	0.8658996
82	0xbe2e959f	-0.17049263
83	0xbe82bb24	-0.25533402
84	0x3f241de0	0.64108086
85	0x3d0aa00a	0.03384403
86	0xbef8c9c8	-0.48591447
87	0x3e85f569	0.26163796
88	0x3e43a7ef	0.1910703
89	0xbc8f4e1b	-0.017493298
90	0xbd115e48	-0.035490304
91	0xbf2f1fae	-0.68407714
92	0xbd88ebbd	-0.066855885
93	0xbeac169b	-0.33610997
94	0xbdc916ce	-0.09818803
95	0x3ec14e70	0.37755156
96	0xbe54c538	-0.20778358
97	0xbd10bdb7	-0.035337176
98	0xbdd4265f	-0.10358881
99	0xbd58ab13	-0.052897524
100	0xbdb084b4	-0.08619061
101	0xbe2216ca	-0.15829006
102	0xbe761190	-0.24030137
103	0x3d344015	0.044006426
104	0x3be96370	0.0071224496
105	0xbc958acd	-0.018254662
106	0x3e207cce	0.15672609
107	0x3e6df611	0.23238398
108	0xbd651ba8	-0.05593458
109	0xbdf63c68	-0.1202324
110	0xbdac1d62	-0.08404042
111	0xbe395dc4	-0.18102175
112	0x3c825b18	0.015912578
113	0xbdaea85e	-0.08528207
114	0x3f1c64ad	0.6109112
115	0x3dedff14	0.11620918
116	0x3e5b4a7d	0.21415134
117	0x3e91dcbd	0.28488722
118	0x3e34c4f5	0.17653258
119	0x3d011ae5	0.03151979
120	0xbe6997a8	-0.22811759
121	0x3e2cbc0a	0.16868606
122	0xbe0d61df	-0.13806866
123	0x3dcd0e67	0.10012513
124	0x3e397ed6	0.1811479
125	0x3e165b70	0.14683318
126	0xbe46c6bb	-0.19411747
127	0xbecc510c	-0.39905584
128	0xbd00c4fa	-0.03143785
129	0xbe678488	-0.2260915
130	0x3ecd5008	0.40100121
131	0xbf3d5ad4	-0.7396672
132	0x3e6e9307	0.23298274
133	0xbd595ad5	-0.05306514
134	0x3e5aa69b	0.21352617
135	0xbeee68b8	-0.4656427
136	0x3f275694	0.6536648
137	0xbec9848f	-0.39358947
138	0x3e869bb7	0.26290676
139	0xbe5777ca	-0.2104179
140	0x3dd3ec88	0.10347849
141	0xbe8cf7a5	-0.27532688
142	0xbe3cd408	-0.18440259
143	0x3f079fec	0.52978396
144	0xbd8cc385	-0.0687323
145	0xb95ac30c	-0.0002086276
146	0x3e777ff3	0.24169903
147	0x3e83efdb	0.25768933
148	0x3ee363da	0.44412118
149	0xbd915f7b	-0.070982896
150	0xbd04f329	-0.032458458
151	0x3ee8abef	0.45443675
152	0x3dc8b630	0.098003745
153	0xbe402b42	-0.18766502
154	0xbd7b298d	-0.061318923
155	0xbd6b1c4e	-0.05740004
156	0x3cddb728	0.027064875
157	0x3ca7f10e	0.020500686
158	0x3e1c6537	0.15272985
159	0xbd1c8f2f	-0.038222488
160	0xbcc5d1e6	-0.024147939
161	0xbe622d97	-0.22087704
162	0xbece4759	-0.4028881
163	0xbed7db86	-0.4215967
164	0x3e7f8400	0.24952698
165	0x3eb500a1	0.35352042
166	0xbe497a9f	-0.19675682
167	0xbf12ce25	-0.573458
168	0xbe5d06e2	-0.21584657
169	0xbf0204c8	-0.50788546
170	0xbee6f7fc	-0.45111072
171	0x3d9f7360	0.07785678
172	0xbe9f7713	-0.31145534
173	0x3e0fe403	0.14051823
174	0xbf17228d	-0.59037095
175	0xbd306e3c	-0.043073878
176	0xbcd1ee91	-0.025626453
177	0xbd780de8	-0.060560137
178	0x3da2b8ac	0.079453796
179	0xbe94fbbb	-0.29098305
180	0xbd205d02	-0.0391512
181	0x3e41e619	0.18935432
182	0xbe4d8fe0	-0.20074415
183	0x3e4c22f8	0.19935215
184	0x3d95b673	0.0731019
185	0xbdaee3ba	-0.08539529
186	0xbd8f4ece	-0.06997453
187	0xbd5c8935	-0.05384179
188	0xbdb9b6df	-0.09068083
189	0xbd724efb	-0.059157353
190	0x3ebbfbf7	0.3671567
191	0x3e63f1db	0.2226023
192	0x3e3fac27	0.18718015
193	0xbd6f94c8	-0.0584915
194	0xbe0b609a	-0.1361107
195	0x3e119bd6	0.14219603
196	0xbed5e610	-0.41777086
197	0xbc0465da	-0.008080924
198	0x3ec571d6	0.38563412
199	0xbc91f446	-0.017816674
200	0xbec46207	-0.3835604
201	0x3e30b93f	0.17258166
202	0x3f350577	0.70711464
203	0x3e987c3a	0.29782277
204	0x3f4c42f8	0.79789686
205	0x3e923245	0.28553978
206	0xbe5f260a	-0.21791855
207	0xbe075c43	-0.13218789
208	0xbe5c248c	-0.21498317
209	0xbe2cd218	-0.1687702
210	0x3e920b9a	0.28524476
211	0xbd87ec08	-0.06636816
212	0x3e2abe12	0.16674069
213	0x3e15633f	0.1458864
214	0x3d542fdb	0.05180345
215	0x3e3d4cde	0.18486354
216	0x3e190544	0.14943415
217	0xbe1f3a89	-0.15549673
218	0x3d3ccff1	0.046096746
219	0x3e1a2ca7	0.15056096
220	0xbd5e1013	-0.05421455
221	0xbc5f70df	-0.01363775
222	0x3e92e709	0.2869189
223	0xbdfce1fc	-0.123477906
224	0xbdada335	-0.08478395
225	0x3e6790db	0.22613852
226	0xbe0e5712	-0.13900402
227	0x3dbb9064	0.091584
228	0x3c68f497	0.014218471
229	0x3e2151c4	0.15753847
230	0x3f08df6a	0.534659
231	0x3e7b2a6c	0.24527901
232	0x3df11dff	0.117732994
233	0x3e2365b5	0.15956767
234	0xbe5f9ac3	-0.2183638
235	0x3eb8f5c9	0.3612502
236	0x3e4fdbf3	0.20298748
237	0xbd285f8a	-0.04110674
238	0x3da655fc	0.08121869
239	0x3f29918a	0.662377
240	0xbe92fd6f	-0.2870898
241	0xbe0f3587	-0.13985263
242	0xbe8d30d7	-0.27576324
243	0xbee588fe	-0.4483108
244	0x3c983813	0.018581426
245	0x3ec7e226	0.39039725
246	0x3e12b9d1	0.14328696
247	0x3ea542fe	0.32277673
248	0x3dfab9f6	0.122425005
249	0x3e26451e	0.16237304
250	0xbd8dffe6	-0.069335744
251	0x3d45593e	0.04818081
252	0xbdc6f5ab	-0.09714826
253	0x3dd64968	0.1046322
254	0x3ebd4e9c	0.36974037
255	0x3ea7a5f0	0.32743788

bias f4 [64]
0	0x3b649c55	0.003488322
1	0x3b0d8cf9	0.0021598919
2	0xbcde4707	-0.027133478
3	0x3e312568	0.17299426
4	0xbc252503	-0.010079625
5	0x3cad1998	0.021130368
6	0xbb2022e0	-0.002443485
7	0x3b437338	0.0029823314
8	0x3e9d2484	0.30691922
9	0x3e5af0a7	0.21380864
10	0xbcbce232	-0.023057077
11	0x3d280ce2	0.04102791
12	0x3b8560a2	0.0040703574
13	0x3c8498a8	0.016186073
14	0x3de0a7fe	0.10969542
15	0xb993e1cf	-0.00028206265
16	0x3bc6e79a	0.0060700895
17	0x3d10dda0	0.035367608
18	0x3cc99190	0.024605542
19	0x3e827ece	0.2548737
20	0x3becc318	0.0072254054
21	0x3e846750	0.2586007
22	0x3e495282	0.1966038
23	0xbb4fd808	-0.0031714458
24	0xbcb26eec	-0.021781407
25	0x3e49d808	0.19711316
26	0xba18a874	-0.00058234413
27	0x3e0018d2	0.12509468
28	0xbc1354ae	-0.008992357
29	0x3cbec5cc	0.023287676
30	0xbcc802e2	-0.024415437
31	0xbbc87868	-0.006117869
32	0x3c91eef4	0.017814137
33	0x3e7e3a71	0.24826981
34	0x3e062e50	0.13103604
35	0xba1f7e3b	-0.00060841785
36	0x3e8a747f	0.27042004
37	0x3bca5acc	0.0061753746
38	0x3d015917	0.031579103
39	0x3bd4e5bc	0.006497113
40	0x3b05bbf0	0.002040621
41	0x3d91cbba	0.07118936
42	0x3b8b3ee8	0.0042494424
43	0xbb6011ac	-0.003419022
44	0x3d93d28e	0.072178945
45	0x3c9ac537	0.018892867
46	0xbcd73769	-0.026271539
47	0xbbab7b6f	-0.0052332203
48	0xbb3832a4	-0.0028106356
49	0x3e92d954	0.28681433
50	0xbc950667	-0.01819153
51	0xbb09f6f8	-0.0021051746
52	0x3e9a5787	0.30144903
53	0xba920fb7	-0.0011143599
54	0xbc5a3cb2	-0.013320135
55	0x3c556b99	0.013026142
56	0xbc95ed67	-0.018301679
57	0x3bd3c32f	0.0064624767
58	0x3e0ab34a	0.13544956
59	0x3c7d490c	0.01545931
60	0x3e80353e	0.2504062
61	0xbca35364	-0.019937225
62	0x3bfb98f1	0.007678144
63	0xbca2d551	-0.019877108

weight f4 [64, 64]
0	0x3eac0b5a	0.3360241
1	0x3f18174b	0.5941054
2	0x3eb5271c	0.353814
3	0xbd331f32	-0.043730922
4	0xbebeb582	-0.37247854
5	0xbefce647	-0.49394438
6	0xbf093ef0	-0.5361166
7	0xbed89cb9	-0.4230707
8	0x3e09f394	0.13471824
9	0x3d882ae0	0.06648803
10	0xbeb85e80	-0.36009598
11	0xbe71f194	-0.23627311
12	0xbea486fb	-0.32134232
13	0xbef625aa	-0.4807561
14	0xbc8939b4	-0.016751148
15	0x3f5282be	0.82230747
16	0x3ebce4e7	0.3689339
17	0xbe7d96ed	-0.24764605
18	0xbea35921	-0.31903937
19	0x3d0b6082	0.034027584
20	0x3eb055d1	0.34440473
21	0xbdf33cdb	-0.11876842
22	0xbdf4f623	-0.11961009
23	0x3ea4f56a	0.32218486
24	0x3e549082	0.2075825
25	0x3ba12d77	0.00491875
26	0x3e9837a8	0.29729962
27	0xbddd358c	-0.10801229
28	0x3ea0548b	0.313145
29	0xbea75479	-0.32681635
30	0xbe9c6698	-0.30547023
31	0xbec16b11	-0.37776998
32	0x3dc75e95	0.09734837
33	0xbd199808	-0.037498504
34	0xbc79dcb6	-0.0152503755
35	0x3e08cb9c	0.13358921
36	0xbbfd22d4	-0.007725099
37	0xbec76f1f	-0.38951966
38	0xbeafa61f	-0.34306428
39	0xbec8a142	-0.3918553
40	0x3ea08862	0.31354052
41	0xbe86f250	-0.26356745
42	0x3ef38d1a	0.4756859
43	0xbec7134d	-0.38881913
44	0xbe0e5bce	-0.13902208
45	0xbed1fc37	-0.41012737
46	0xbeed68b0	-0.46368933
47	0xbec6cce5	-0.38828197
48	0xbe94e985	-0.2908441
49	0xbd6e077c	-0.058112606
50	0x3e8d7ddd	0.2763509
51	0x3ea0980d	0.31366006
52	0x3e61f4d6	0.22066054
53	0xbe336271	-0.17518021
54	0x3ed26b7b	0.41097626
55	0xbef75129	-0.48304108
56	0x3ed296f1	0.41130784
57	0xbed48264	-0.4150573
58	0xbe825c5d	-0.25461093
59	0x3e9ddd31	0.30832818
60	0xbddf262b	-0.10895952
61	0xbeb81413	-0.35952815
62	0xbec7b7d9	-0.39007452
63	0xbe4f54fe	-0.20247266
64	0xbfb1d502	-1.389313
65	0xbf47270b	-0.7779395
66	0xbf25b2dc	-0.6472604
67	0x3d9d8d0d	0.07692919
68	0x3cf2071f	0.029544411
69	0x3e270a2c	0.16312474
70	0xbcd8796f	-0.026425092
71	0xbd13ec4c	-0.036114022
72	0x3db3da8c	0.08781919
73	0x3e3e785f	0.18600605
74	0xbee0b8a6	-0.43890876
75	0xbe1c1d9b	-0.15245669
76	0xbd86150b	-0.065469824
77	0x3ea78eef	0.32726237
78	0x3cc58af8	0.024114117
79	0xbe87c19d	-0.26514903
80	0xbf5b23e5	-0.85601646
81	0xbe8fba2d	-0.28071728
82	0x3dac14fc	0.0840244
83	0x3e44a5d5	0.19203885
84	0xbf62f6f4	-0.8865807
85	0x3e7d55ea	0.24739805
86	0x3e6a4e48	0.22881424
87	0xbf3a78a8	-0.72840357
88	0xbf3f4d46	-0.74727285
89	0x3de8092e	0.11329876
90	0xbf00a060	-0.5024471
91	0x3dbadc67	0.0912407
92	0xbf5165d6	-0.81796014
93	0x3c51e408	0.012810715
94	0xbdf9f0f2	-0.1220416
95	0x3dedc966	0.11610679
96	0xbef69581	-0.48160937
97	0x3dcb9290	0.09940064
98	0x3c5ca48b	0.0134669645
99	0xbf0b731a	-0.54472506
100	0x3db2f30e	0.08737765
101	0x3e63293a	0.22183695
102	0x3e0725d7	0.13198029
103	0xbe1ad443	-0.15120034
104	0xbf07a7db	-0.529905
105	0x3e9c2171	0.30494264
106	0xbefb2a3e	-0.49055666
107	0x3dd99c09	0.106254645
108	0x3ebc3b14	0.36763823
109	0xbd2527a0	-0.040320992
110	0xbdd6901c	-0.104767054
111	0x3bdff3ad	0.0068344683
112	0xbdcc2327	-0.09967642
113	0x3d9fb20c	0.077976316
114	0xbf2c1129	-0.67213684
115	0xbf9b5d54	-1.2137856
116	0x3dd70218	0.10498446
117	0xbee4794c	-0.44623792
118	0xbf2a5c2b	-0.6654689
119	0xbd146459	-0.03622851
120	0xbedde21e	-0.43336576
121	0xbe624634	-0.22097093
122	0x3e3196b9	0.17342652
123	0xbf08068a	-0.5313498
124	0x3d334ccd	0.043774415
125	0xbe0088d9	-0.12552203
126	0xbcfa2f9c	-0.03054028
127	0xbe0ac8e7	-0.135532
128	0x3eb35ae7	0.3503029
129	0x3e6678fd	0.22507091
130	0x3d882925	0.06648473
131	0xbddab082	-0.106781974
132	0xbf825221	-1.0181314
133	0xbf56d44a	-0.8391768
134	0xbf889553	-1.067057
135	0xbf132ea2	-0.5749303
136	0x3d676b1c	0.05649863
137	0xbcd234e5	-0.025659988
138	0xbf808758	-1.0041304
139	0xbf2bf1b9	-0.67165715
140	0xbf55fd23	-0.8358938
141	0xbf471c97	-0.77778
142	0xbe399347	-0.18122588
143	0x3f2dc021	0.6787129
144	0x3eed532e	0.46352524
145	0xbf41e96c	-0.757468
146	0xbe97ac52	-0.29623657
147	0x3dff0ab6	0.12453215
148	0xbd45be48	-0.04827717
149	0x3ca78cbf	0.020452855
150	0x3e3e3b59	0.18577327
151	0xbc5bac0f	-0.013407721
152	0x3ef29c75	0.47384992
153	0x3dcbaaa6	0.09944658
154	0x3db3d530	0.08780897
155	0xbaa555c7	-0.0012614065
156	0xbe4f6801	-0.20254518
157	0xbf4b216f	-0.7934789
158	0xbf51ef83	-0.8200609
159	0xbf794983	-0.97377795
160	0x3e3c157f	0.18367575
161	0xbc78900b	-0.015171061
162	0x3e34564a	0.17611042
163	0x3d186828	0.037208706
164	0x3e179756	0.14803824
165	0xbf8f572a	-1.1198475
166	0xbf2e7cdb	-0.68159264
167	0xbf866bd6	-1.0501659
168	0x3ec00df3	0.37510642
169	0xbdfcc3ae	-0.123420104
170	0x3e1d865f	0.1538329
171	0xbf872ed4	-1.0561166
172	0xbe628673	-0.22121601
173	0xbf01fa72	-0.50772774
174	0xbf462201	-0.77395636
175	0xbfa2205e	-1.2666128
176	0xbf5f364c	-0.87192225
177	0x3dd1f521	0.10251833
178	0x3dc35cdf	0.09539198
179	0x3ef5c7ea	0.48004085
180	0x3e363d4f	0.17796825
181	0x3dd25922	0.10270907
182	0x3ec46f5d	0.38366213
183	0xbf28b2b1	-0.6589766
184	0x3c6a1cb1	0.014289067
185	0xbf7f8624	-0.9981406
186	0x3c9277ec	0.017879449
187	0x3e98d524	0.29850113
188	0x3e3fe19a	0.18738404
189	0xbf4ce105	-0.8003085
190	0xbf1efe4d	-0.6210678
191	0xbf315175	-0.6926492
192	0x3e8a1700	0.26970673
193	0x3e024524	0.12721688
194	0x3e9608e1	0.2930365
195	0xbe04103c	-0.12896818
196	0xbf1045d1	-0.5635653
197	0xbf1121c0	-0.56692123
198	0xbf40d5e5	-0.7532638
199	0xbeb7f79e	-0.35931104
200	0x3d808a5f	0.06276392
201	0xbe3647bc	-0.17800802
202	0xbf23d962	-0.64003575
203	0xbee4f896	-0.44720906
204	0xbee8741c	-0.45401084
205	0xbef0f890	-0.47064638
206	0xbea8a122	-0.32935435
207	0x3f385249	0.7200056
208	0x3eea140f	0.45718428
209	0xbee2196d	-0.44160023
210	0xbe380497	-0.17970501
211	0x3cfa98ad	0.03059038
212	0x3e95e2a2	0.2927447
213	0x3e2c6b0f	0.16837715
214	0x3e2ddefb	0.16979592
215	0x3e4a9369	0.19782795
216	0x3eb894a8	0.36050916
217	0x3dfc842c	0.12329897
218	0x3d9c947b	0.07645508
219	0xbe24e75e	-0.16103885
220	0xbde6a69b	-0.11262246
221	0xbef6aa92	-0.4817701
222	0xbeefa445	-0.46805015
223	0xbf32bb07	-0.6981663
224	0x3e943f58	0.28954577
225	0xbd4380bb	-0.04773019
226	0x3e1480c4	0.14502245
227	0x3e5047a9	0.20339836
228	0x3c03dfdf	0.0080489805
229	0xbf13624b	-0.5757186
230	0xbf040cbd	-0.5158194
231	0xbf5beb34	-0.85905766
232	0x3ecd16cb	0.40056452
233	0x3db2a39b	0.087226115
234	0x3f01cfbe	0.50707614
235	0xbef7ec6b	-0.4842256
236	0x3d223ff0	0.039611757
237	0xbf093b6e	-0.5360631
238	0xbf04ce28	-0.5187707
239	0xbf641a19	-0.8910232
240	0xbf31e74e	-0.6949357
241	0xbd177a19	-0.036981676
242	0x3d05a6c1	0.032629732
243	0x3ee5556c	0.44791734
244	0x3e662bbd	0.22477622
245	0x3daa6203	0.083194755
246	0x3e9dd302	0.3082505
247	0xbf0d308e	-0.55152214
248	0x3ebc9d72	0.3683887
249	0xbf481c00	-0.78167725
250	0xbd8af04c	-0.06784114
251	0x3e311d91	0.17296435
252	0x3dbcf3c5	0.09226183
253	0xbf352336	-0.7075685
254	0xbedbb183	-0.42908868
255	0xbf11947e	-0.56867206

bias f4 [64]
0	0x3e2166bc	0.15761846
1	0x3e10739a	0.14106598
2	0x3e463ecd	0.19359894
3	0x3e18ac99	0.14909591
4	0xbcf964e4	-0.030443616
5	0x3d38d716	0.045126997
6	0x3cc5d655	0.024150053
7	0x3e30efff	0.17279051
8	0x3dfe42dd	0.12415097
9	0x3e158ed0	0.1460526
10	0x3e01ee7f	0.12688635
11	0x3e2b6471	0.16737534
12	0x3db74ec6	0.08950572
13	0x3e202a45	0.15641125
14	0x3c906cb0	0.017629951
15	0x3dc0d1f5	0.09415046
16	0x3d9c2afb	0.076253854
17	0xbda47f8c	-0.0803214
18	0xbdb21be5	-0.08696727
19	0x3def0048	0.116699755
20	0xbe068fce	-0.13140795
21	0x3dfeb484	0.124367744
22	0x3dbdd02a	0.0926822
23	0xbe131a65	-0.14365537
24	0x3e0d8757	0.1382116
25	0xbd18a0f3	-0.037262868
26	0xbe0b3b19	-0.13596763
27	0x3e2173d2	0.15766838
28	0x3cea9d73	0.02863953
29	0x3e170107	0.14746486
30	0x3db9f9a8	0.09080821
31	0x3ddef41d	0.10886405
32	0x3e1ea8f0	0.15494132
33	0x3dc4d6cd	0.096112825
34	0xbe41b239	-0.18915643
35	0x3e3c31db	0.18378393
36	0xbdbdc24f	-0.09265577
37	0xbd89299b	-0.06697389
38	0x3e0769e0	0.13223982
39	0x3ded8652	0.11597885
40	0x3db2af45	0.08724836
41	0x3d9d3e2a	0.076778725
42	0x3db44c72	0.08803643
43	0x3d91ef7b	0.071257554
44	0x3dad9894	0.084763676
45	0x3e1afb57	0.15134941
46	0x3e576cac	0.21037549
47	0xbe213c34	-0.15745622
48	0x3df28ede	0.11843656
49	0x3e32b21f	0.1745076
50	0x3e2ffa30	0.17185283
51	0x3e319a8b	0.1734411
52	0x3e077e86	0.13231859
53	0x3d5e6797	0.05429801
54	0xbd54c318	-0.05194387
55	0x3e384a9e	0.17997214
56	0x3e0e476d	0.13894434
57	0xbdc9024f	-0.098148935
58	0xbd4ebd99	-0.050473783
59	0x3c682983	0.014170053
60	0x3e2b452f	0.1672561
61	0x3e396216	0.18103823
62	0x3cba11b1	0.022713514
63	0x3de88506	0.11353497

weight f4 [1, 64]
0	0xbf3ba7c9	-0.73302895
1	0x3f69dd26	0.9135307
2	0xbf950494	-1.1642022
3	0xbf4ac229	-0.79202515
4	0x3f1e5ecd	0.61863405
5	0x3f802c24	1.0013471
6	0x3f42764a	0.75961745
7	0xbf45b037	-0.7722201
8	0xbf833740	-1.0251236
9	0x3f2a0cd4	0.66425824
10	0xbf3f74dc	-0.7478769
11	0xbfeb44ff	-1.8380431
12	0x3f958b8c	1.1683211
13	0x3eeae63a	0.45878774
14	0x3fa5c106	1.2949531
15	0x3f837921	1.0271341
16	0x3f3a2d72	0.72725594
17	0x3f0ad83c	0.542362
18	0x3f11def2	0.5698081
19	0xbf33d6f2	-0.70249856
20	0xbf88b9a9	-1.0681659
21	0xbf6d8609	-0.92782646
22	0xbe9f7660	-0.31145
23	0xbf8c172f	-1.0944575
24	0x3edbb4ce	0.4291138
25	0x3f1d5fd2	0.61474335
26	0x3ccb1374	0.02478955
27	0x3f647933	0.89247435
28	0xbf43cf14	-0.7648785
29	0xbf95f7b0	-1.1716213
30	0x3f815ab0	1.0105801
31	0x3f3cf46f	0.73810476
32	0xbf217c37	-0.6308016
33	0x3f074eea	0.5285479
34	0x3ec124b8	0.37723327
35	0xbf2128f9	-0.62953144
36	0x3c40e7a1	0.011773975
37	0xbf643476	-0.8914255
38	0x3f61e346	0.88237417
39	0xbfa7f23a	-1.3120797
40	0x3fa42a3f	1.2825392
41	0x3f8c324e	1.0952852
42	0x3f7df6d5	0.9920476
43	0xbf4c3ca3	-0.79780024
44	0x3f05558d	0.52083665
45	0xbf34a768	-0.7056794
46	0x3f0669f8	0.52505445
47	0x3f26b51a	0.6512009
48	0xbf5626aa	-0.83652747
49	0x3f3fdf05	0.74949676
50	0x3f9bc91a	1.2170746
51	0x3ed5ce60	0.41759014
52	0xbf8948d2	-1.0725348
53	0x3f8bacde	1.091213
54	0x3f23bc71	0.63959414
55	0x3f5136c7	0.8172421
56	0xbfb46322	-1.4092753
57	0xbf709b5d	-0.93987066
58	0xbf157500	-0.5838165
59	0xbf31c609	-0.694428
60	0xbf9f6c72	-1.245497
61	0x3f89bffa	1.0761712
62	0x3f097aba	0.5370289
63	0x3f96f0bf	1.179222
